model.pth (torch, 25683 bytes, 4 tensors)

weight f4 [256, 15]
00000000: abe6 6bbe a3db b4bd 1cd9 a2be 5f91 83bd
00000010: 7fcb 14be 292d a0bd 57dd 9ebd ae49 f93d
00000020: 2dab 1abe facf b6bd b0ad 173e 7026 82be
00000030: 5dfa 1bbe 3b9b 35bd 37fd 823d 0281 483e
00000040: ac9c f0be 2b4e 6b3e fb24 03be facf ebbd
00000050: 7a28 8dbe e56a 71be 667a 46be 1b00 723e
00000060: 5dbc c23c 22f8 f8bd 57e1 7cbf 2887 05bd
00000070: fbc6 033e e6be c1bc 2386 06bf 6106 dbbe
00000080: 46f4 83bc 6867 e2be b6cb 1c3e 738e 27be
00000090: 347a b93d e70f adbe 04c9 0f3e 6001 64be
000000a0: 7897 e8bd 9edc e4bc 2fe0 3a3c d7c5 fc3d
000000b0: 7a31 62be fc3e d7bc 932d 533d 7c60 f0bd
000000c0: 4b61 d3bc 04e1 9fbc 4e43 473c 56d4 c83d
000000d0: 27e6 d63c 15f1 67be 5afc cdbc de65 b83d
000000e0: 4669 3dbd ad04 98be bc43 f0bc 2863 d9bd
000000f0: 7c4b 033e 7e77 fc3d 585c 65be acb2 013e
00000100: 8dd4 bfbe 5b2a 95bd a004 43be 628c 92be
00000110: 12b0 afbe dcf6 963d 89d1 f7bd 901d 37be
00000120: bdea 43bc f9a1 b0be d18f 123d 351c b9be
00000130: ee62 5cbe 4e99 a0be 829a 42bd 2c82 d2bc
00000140: 38d0 0ebe 4ca9 1ebe f0b2 2dbe 7175 c23c
00000150: 7502 9ebd 7d50 f9bd d502 da3e 4f4d 7ebe
00000160: 0964 323c 57d6 9ebc 2ffc a8be 4460 86be
00000170: 51cd 56be 7443 0a3e 1b2f 05be 4ae2 8ebe
00000180: 9c8a 94be 5da1 6fbe 4348 08bd 097a b53c
00000190: 7226 3ebc 7013 403e c5c1 23be 4a2c d9bc
000001a0: 0ebf 973d 675b 813d 3fae 0ebe d56f ee3d
000001b0: 7025 2ebe cb18 65be dcd5 42bd 76eb 723d
000001c0: 69b7 d53d 6d72 b13b 3718 96be 66df c2bc
000001d0: 07c8 debd b80d 6fbe 0eac 013e cc7d 75be
000001e0: e78c d43d 6237 d13d 3241 debc d03d a5be
000001f0: ed5f a9be 969a 3abd d220 583e 1436 f23c
00000200: 1a10 74be e180 c0bd 4376 53bd 0f95 733e
00000210: 80b7 373e a3b3 4ebd 9ca9 82be eed0 bcbe
00000220: e9ff d2bd 057b cdbc 9377 a0be 3ed4 f3bc
00000230: 5ca5 f83d f972 f7bc 9a62 19be 4716 5abe
00000240: 228d 60bd 72ff 0d3d 6efd 3b3e 5af6 cfbd
00000250: 26f2 eb3c 8e08 d4bd 20b5 673f dc13 313f
00000260: a442 ee3d 6aa0 0a3f 011c 51bf 8999 d93e
00000270: bf86 d83d 7ed3 583f 1431 9cbe 6cca cc3d
00000280: 1439 94be f226 6abf fa2a 02be d8e1 ca3d
00000290: 2ab4 c53e 3620 98bc ee80 9ebe be5f ee3d
000002a0: a592 10be e620 83be d2c2 78be 3b52 8cbd
000002b0: b9b8 263e c86a 10be 811d 84bc 310a 68be
000002c0: cc03 edbc 6aee b8bd 5834 fc3d 51f0 eabd
000002d0: d807 2cbd e810 173c fa39 95be 8374 053d
000002e0: 899a 00bc 9778 e7bd 85f0 f73b 7db4 a9bc
000002f0: 04d7 33be c538 b6be 8a5f db3d ab6f 1abe
00000300: 7ab5 d03d 73ad 11be 0577 63be f7e7 aabd
00000310: 4dc5 3fbf e1a8 713e 9b71 233e b97a be3b
00000320: bab8 55be 6d20 d8be 1370 c5be 2acd 12be
00000330: 00cb 41bc 0509 7cbe 55c3 82be 603c 9ebe
00000340: ebfa ff3d a378 2b3e 5959 c3be 5b73 27bd
00000350: 3ab8 ebbd 34ae 43be b8a3 efbc 4113 2fbd
00000360: e9d4 cb3d c7ec 8dbe 5003 953c 7d5e 77bd
00000370: 2feb b2bc c6cc 083e 2c1a 27be 08a4 c23c
00000380: 9c50 25bd 6a19 f13d 0898 a9bd 9865 a2be
00000390: 2beb 11be 453d 81be 9473 343e 06d0 c53d
000003a0: 00f1 503d d9cc 1cbe a580 d9bd dcc9 02be
000003b0: 085f 0d3e 73e5 1f3e 7666 74bb eb57 57be
000003c0: a25d 1440 f867 e0be aea7 b93e 439c 91be
000003d0: 22c8 10be 97be 98be 5304 0bbf a69d 63be
000003e0: 63fe 15bd 17e1 953f 0f80 a6be 9928 abbe
000003f0: 5458 a1be d6a4 9abe f2bf 19bf 979f 1b3e
-0.23037212 -0.08830955 -0.31806266 -0.06424212 -0.14530753 -0.078211136 -0.07757061 0.121722564
-0.15104361 -0.08926387 0.1481235 -0.2541995 -0.15232225 -0.044337492 0.06395953 0.19580463
-0.4699453 0.22979037 -0.12807076 -0.11514278 -0.27569944 -0.23575933 -0.19382629 0.23632853
0.02377146 -0.121567026 -0.9878134 -0.0325996 0.12868874 -0.023650598 -0.52548426 -0.42778304
-0.01610769 -0.44219518 0.15312085 -0.16362934 0.090565115 -0.33801195 0.14041525 -0.2226615
-0.11357015 -0.02793723 0.011405989 0.123424225 -0.22089186 -0.02627515 0.051557135 -0.11737153
-0.025803229 -0.019516475 0.012162043 0.09806125 0.026232792 -0.22650559 -0.025144745 0.090038046
-0.046242975 -0.29691067 -0.029329173 -0.10614616 0.12821764 0.12327479 -0.22398508 0.12665814
-0.3746685 -0.07283469 -0.19044733 -0.2862273 -0.34314018 0.073713034 -0.121005125 -0.17882371
-0.011957821 -0.34498575 0.035781685 -0.36154333 -0.21522114 -0.31366962 -0.04751063 -0.025696836
-0.13946617 -0.15494269 -0.1696279 0.023737641 -0.077153124 -0.12173555 0.42580286 -0.24834178
0.010888108 -0.019389315 -0.330049 -0.2624532 -0.2097676 0.13502294 -0.1300625 -0.2790702
-0.29012 -0.23401399 -0.03327204 0.022152917 -0.011605846 0.18757415 -0.15991886 -0.026510376
0.07409488 0.06316262 -0.13933657 0.11642424 -0.17006469 -0.22372739 -0.047567233 0.059306584
0.10435373 0.005415252 -0.2931535 -0.023788165 -0.10877996 -0.23345077 0.1266329 -0.23973769
0.103784375 0.102156416 -0.027130697 -0.32273722 -0.33080998 -0.04555758 0.2110627 0.029566802
-0.23834267 -0.09399582 -0.051626455 0.2378733 0.17941093 -0.050464284 -0.25520027 -0.3687815
-0.10302717 -0.025083074 -0.31341228 -0.02976429 0.12140915 -0.03020619 -0.1497902 -0.2129756
-0.054822095 0.03466744 0.18358395 -0.1015441 0.028801989 -0.10353194 0.9051075 0.6917093
0.116338044 0.5415102 -0.81683356 0.4249995 0.10572576 0.8469771 -0.30506194 0.099995464
-0.28949797 -0.91465676 -0.12711707 0.099063575 0.38614017 -0.018570047 -0.3095774 0.11639355
-0.1411844 -0.25611037 -0.24293068 -0.06851622 0.16281404 -0.14103234 -0.01612735 -0.22660138
-0.028932475 -0.09029849 0.12314671 -0.11471618 -0.041999668 0.009220339 -0.29145795 0.032581817
-0.007849344 -0.113022976 0.007566514 -0.020715946 -0.1756249 -0.35590187 0.10711582 -0.1508166
0.10190864 -0.14226322 -0.22213371 -0.08345025 -0.7491043 0.23599578 0.15961306 0.0058129695
-0.20871249 -0.4221224 -0.38562068 -0.14336076 -0.011828184 -0.24612816 -0.25539652 -0.30905437
0.12499031 0.16745238 -0.38154104 -0.040881496 -0.11509748 -0.19109422 -0.029252872 -0.04274297
0.09952719 -0.2771971 0.018190056 -0.060392845 -0.02184066 0.13359365 -0.16318578 0.023759857
-0.04036008 0.117724255 -0.08280951 -0.31718135 -0.14249866 -0.25242057 0.17622215 0.09658818
0.051011086 -0.15312518 -0.1062024 -0.12772316 0.13805783 0.15614872 -0.0037292517 -0.21029632
2.318215 -0.43829322 0.36260742 -0.2843953 -0.14138845 -0.2983291 -0.54303473 -0.22228107
-0.036619555 1.1709317 -0.32519576 -0.3342941 -0.31512702 -0.30203885 -0.6005851 0.15197597

bias f4 [256]
00000000: 64d4 813d c6e1 143e bfa8 8c3d 1b40 f2bc
00000010: 88ac 9ebe ada5 d2be 54a8 65be 03fc 30be
00000020: 26f4 303e d285 c3bc 78da 11be 3031 4bbd
00000030: 9079 9b3d 12e8 3d3e 86bb b1be ce13 69bd
00000040: 90f1 9fbe 7d4a f03d a64e 4cbe 6591 17be
00000050: 01eb 8abe 4f75 ecbc d606 cd3d b9cf b5be
00000060: 667e d5bc 488e be3c 4fc1 fdbd e8f6 3abe
00000070: 11a8 51be bb32 5f3e f00d 543e 1f4e a43d
00000080: c808 1cbe 34b1 57be 8ba3 f0bd d480 c93e
00000090: a40c 19bd ec1a 19bd 8e91 a4bd 1973 9dbe
000000a0: 8c10 4fbe 60f1 20bc e882 94bd 3e22 493e
000000b0: 92c0 8bbe 58b8 6fbc 9220 3e3d a508 9dbe
000000c0: 7acf 4dbe c469 52be 9396 82bd acc7 43be
000000d0: 7f0e 08be e126 763c 4b84 5dbe 27d8 f2bd
000000e0: 01f4 c2bd 2a2f 203f dbf4 b0be 8180 6fbc
000000f0: 03fc 00be 34f9 92be b51b 64be 5a62 8abe
00000100: cd82 b43d fa03 8bbe 4cae f6bc f3c0 3a3d
00000110: 7ce0 9dbe 9eb1 7cbe b006 82be 1d29 d1be
00000120: de12 9cbd 2df9 2abe 0ccf 03be 7f72 343d
00000130: 4a8b a7be 6d22 b93d 3df8 0d3e 665a 9fbd
00000140: 8fe6 013e e7bf d1be 09d3 23be 2864 2dbe
00000150: 61df a6be a91c c83e d09e 7abe 7c25 81be
00000160: ae09 9abe 5836 a0bd ffa4 f0bd cc94 f2bd
00000170: 24e4 913d b769 7e3c a836 5dbe 68cb 7dbe
00000180: 5a88 87be dce7 98be 4dee 6f3d 5dba d63e
00000190: f45d 663e 1ddf 93be c723 5dbe 36dd aa3d
000001a0: 8720 a2be 4083 c93d bf08 a13d 74b1 10be
000001b0: 3adc febd da8a e740 a8d3 b73d 73fa 683d
000001c0: ac9f b7bd 8753 83be b288 dbbd c765 afbe
000001d0: 4cd2 73be 3094 2c3d 9844 0a3c 3908 eb3c
000001e0: 620d 9bbe 517a d1be e8c2 4bbd fc4e cebc
000001f0: 1869 ccbd fe80 7ebd 7951 70be bed0 20be
00000200: a940 463d ca18 04be f5c3 903d d2cd bb3d
00000210: 6a9c aabe 7419 de3d fb09 ce3d de9f 183e
00000220: acf4 07be 5895 cb3c a271 8fbe e094 eabd
00000230: 0706 373e 9c44 64be 4c8c 6abe 2199 e63d
00000240: 77b1 993e d998 99be 4114 8abe aa8d 50be
00000250: bde6 9b3d 45f0 c0be bbb9 cc3e 1a9d 89be
00000260: 9c45 703e 14cb c1bd 5014 67be c806 c1bd
00000270: b49a 483d 978e afbe 4b45 07be 5b0f b53d
00000280: d495 6ebc d570 afbe 261e 343e 2798 3ebe
00000290: 45af 6e3e 603f b5bd 7aff 9bbe 396e ce3d
000002a0: 34eb c7bd d7a4 bbbd a6d9 65be c34e f43d
000002b0: 3598 afbe f424 76be e38d 8bbe 406c 9ebe
000002c0: cc40 80be 1001 7bbe 0e74 943d 2e56 a3bc
000002d0: 57cd c3be 5b84 1cbe 2444 98be 3cdb 93be
000002e0: 2b7f 3f3d 17f9 8b3c 1b87 0dbf df67 b33d
000002f0: a4e4 953d 8974 f2bd 2694 80be aaf1 86be
00000300: b641 13be b6bc a6be 9802 00be 0c5d 59bd
00000310: fbab 6cbe d691 2cbe 41ae 9ebe 73a1 61be
00000320: 5080 bbbe a7af 9ebe c6dc 0bbe 9608 443e
00000330: bb5b 323e 9fdd aabe cf95 403d 2d3e abbe
00000340: b49c 89be b5d4 113e e3ab eabd 6b49 973d
00000350: b27d 71be 425c 453d 8b67 bd3d 1ac1 cb3d
00000360: fc99 a7bd 3097 18be c775 7abe 0c02 04be
00000370: d36a 663d b9c0 c4be 8039 463e f7aa c9be
00000380: e531 c73d e7e2 7a3a d9c9 3e3d a581 1d3e
00000390: 407a 0c3d 1f6b 2abe 9846 eb3b c54e cebe
000003a0: cebd 69bd 0235 eb3b 0d6e 80be 941b fc3c
000003b0: a3ba 5f3e bf2f 3c3d d7e4 eb3c 1107 c9be
000003c0: f281 39bd 27db fe3c 0c16 81bb bf0c 23be
000003d0: 7f66 26be 918b db3d 76c4 133e f0e0 ad3c
000003e0: 88b8 373d 2875 b9bd 0a14 5cbe 892a ce3d
000003f0: a957 d4bd 10f3 0dbe 0e44 1abe 4259 fdbc
0.063393384 0.1453925 0.06868123 -0.029571583 -0.30991006 -0.41142026 -0.22427493 -0.17283635
0.17280635 -0.023867521 -0.14243495 -0.049607456 0.075915456 0.18545559 -0.34713382 -0.056903653
-0.31238985 0.117329575 -0.19951877 -0.14801557 -0.2713242 -0.02886453 0.100110695 -0.35510042
-0.026061248 0.023261204 -0.12390386 -0.1825825 -0.20474268 0.21796696 0.20708442 0.08022713
-0.15237725 -0.21063691 -0.11749943 0.393561 -0.03736557 -0.03737919 -0.08035575 -0.30751875
-0.20221156 -0.009823173 -0.07251531 0.19641969 -0.27295357 -0.014631353 0.04641778 -0.30670658
-0.20098677 -0.20548159 -0.06376376 -0.19119138 -0.1328678 0.015023918 -0.21632497 -0.11857634
-0.09519196 0.62571967 -0.3456181 -0.01461804 -0.12596135 -0.28705752 -0.22276194 -0.2702816
0.08814011 -0.2715147 -0.030112408 0.045594167 -0.3083533 -0.2467713 -0.25395727 -0.4085168
-0.07620786 -0.16696616 -0.12871951 0.044054504 -0.32723457 0.09039769 0.13864227 -0.07780914
0.12685607 -0.40966722 -0.15998472 -0.16932738 -0.325923 0.39084366 -0.24474645 -0.2522391
-0.3008551 -0.07822865 -0.117502205 -0.11844787 0.071235925 0.015528134 -0.21602881 -0.24784625
-0.26471215 -0.29864395 0.05857687 0.4193906 0.22496778 -0.2888116 -0.21595679 0.08342974
-0.3166544 0.09839487 0.07862996 -0.14130193 -0.12444349 7.2356997 0.08975917 0.056879472
-0.08966002 -0.25649664 -0.10719432 -0.34257337 -0.2381069 0.04213351 0.008439206 0.028690444
-0.30283648 -0.40913633 -0.049746424 -0.025184147 -0.099809825 -0.062134735 -0.2346858 -0.15704629
0.04840151 -0.12900081 0.07068626 0.091701165 -0.3332246 0.108446985 0.100604974 0.14904734
-0.13276929 0.024851486 -0.28016382 -0.11454177 0.17873393 -0.22291797 -0.22905082 0.11259676
0.30018207 -0.29999426 -0.26968578 -0.2036654 0.07612369 -0.3768331 0.3998545 -0.2687767
0.23464054 -0.09462562 -0.22566342 -0.094251215 0.04897566 -0.34288475 -0.13210027 0.088408194
-0.014562089 -0.34265772 0.17589626 -0.18612729 0.23309048 -0.088499784 -0.3046835 0.10079617
-0.09761658 -0.091623 -0.22446308 0.11929085 -0.34295812 -0.24037534 -0.27256688 -0.30941963
-0.25049436 -0.24512124 0.07248698 -0.019938555 -0.382426 -0.15284865 -0.29739487 -0.288782
0.046752136 0.017086549 -0.5528428 0.08760046 0.07319 -0.118386336 -0.25113028 -0.2635625
-0.14380535 -0.3256585 -0.1250099 -0.053067252 -0.2311248 -0.16852507 -0.3099232 -0.22034244
-0.36621332 -0.30993387 -0.13658437 0.191439 0.17417805 -0.33372208 0.04701787 -0.33445874
-0.26877367 0.14241298 -0.11458566 0.0738705 -0.23583105 0.048183687 0.09248265 0.099489406
-0.08183667 -0.14901423 -0.24458991 -0.12891406 0.05625422 -0.38428286 0.19357872 -0.39388248
0.097263135 0.0009570554 0.046579216 0.15381487 0.034296274 -0.16642426 0.0071800463 -0.4029447
-0.057065777 0.00717795 -0.25083962 0.030774869 0.2184854 0.04594397 0.028795643 -0.39263204
-0.04528994 0.03111036 -0.003939396 -0.15922831 -0.16250037 0.107199796 0.14430413 0.021225423
0.044853717 -0.09055549 -0.2149202 0.10066707 -0.10368282 -0.13862252 -0.15065023 -0.03092635

weight f4 [7, 256]
00000000: 6c8d f33c b508 2cbe 95f8 223e e848 18bc
00000010: 0eeb f5bd 66b2 a0be c387 33bd ed56 6fbd
00000020: 030b 063c 3d14 ce3d c57f 7bbe 6299 fd3b
00000030: b879 fbbc 8b8d 153d f2b9 6a3c 3018 2f3d
00000040: 6666 07bf 7717 8abd 7d84 f93d f4b7 15bd
00000050: b23e 003c fab5 0abe 25b9 733e 1f51 853d
00000060: 0978 18bd 264e d5bd df88 c8bd e51d 81be
00000070: d78d 3d3d 07d5 e5be be3f 833c 8d0e 933d
00000080: 9e84 273d 3b50 05be 072b 123e da7a 00be
00000090: 4a4f 8f3c f0d0 4dbf 4cf1 bc3d ab96 27bf
000000a0: a9eb 51bf 3b01 b23c 5014 dbbe 15ef 74bd
000000b0: 9a76 523d 2178 09ba 687b 96bd c358 37be
000000c0: 4c8b f4bc 6da8 f5bc dc94 783d 4421 5e3d
000000d0: a6ce e0bd e8ca 43bd 13a9 f93b 611f 0bbd
000000e0: a4e6 183c 2e4b 4d3d da8d 25bf 3b5b 093e
000000f0: 1920 80bd 6326 d5bc 1061 c13c 262c e43b
00000100: fe5e c83d d573 243e 60ac 00bb 5f4a 603d
00000110: fda5 8ebd 1df1 dabd 7863 20bd f209 72be
00000120: a969 95bb 705b 713d 8ad8 88bd c89f cb3c
00000130: 8522 f13d 17cc f7bb b357 ebbc 141c 12bd
00000140: 046b bfbc d5ad 8cbd 5f41 c83c 4e3f b7bc
00000150: 7c3d 203c 7801 123e 49b1 1bbd e665 82ba
00000160: db3e 2bbc 05fc 3f3c 6a21 173d 4327 f43d
00000170: fd60 27be 374e babc d013 b0bc 95ab e8bc
00000180: 8532 bd3c 85f9 193d 3318 4a3d e2b9 f1bc
00000190: 8ae7 d0ba 3c6d e9bb d458 453d b1bc 94bd
000001a0: 007b f5ba 4969 ddbc 29b6 e53c 31d7 853c
000001b0: 4705 eabe 674e bd3e a9aa 9d3c 0a48 393d
000001c0: 57e2 ee3c ee37 1d3c 635b 1fbe e4da 06bd
000001d0: 74cf 153c 2c8e f53d 090e 1fbd 6922 043e
000001e0: 9a75 d63d 0a2d d53c d4c9 113d ecdb 09bd
000001f0: 7841 013c 60ee 5c3c fe35 97bb e132 883c
00000200: dd70 fbbd 9f13 ad3c 8b6b a8bd b3ce f53c
00000210: eaaf 8b3c ff19 5dbc 85cd cd3c fa8c 8e3c
00000220: 3451 4e3d bffb b1ba 75d1 883d 217e 02bd
00000230: d314 f7bc e8a2 003e d627 0c3b b7f5 953d
00000240: 533f 8b3d 1d59 15be 91f7 56be d0ef 883d
00000250: 6967 54bc 4fd9 abbc 10a7 a7be 3f3c ab3b
00000260: 6dda 4c3e f4a5 7f3d d64e 6c3d 3104 e3bd
00000270: 0f2d 093d 7bab 8fbc e9cb 693c f389 03be
00000280: 95ec 49bc c500 fb3c e813 5dbc 15c4 21bc
00000290: c0b3 183d 4ce0 2ebd 14a3 503a cf19 4e3d
000002a0: 20b6 37bd e634 69bd c5d4 18be 24fc db3c
000002b0: 38ae ebbe c982 87be bb9d 99bc d0d1 5bbd
000002c0: 3538 08bd 2cdd f9be 6c11 af3c 8160 963e
000002d0: ca23 943b 3c18 02bd 9344 3e3d 3498 59bd
000002e0: 3b3d d3bd 9a8d fb3d 1272 b5bf b023 1cbd
000002f0: 0dc7 1b3d 26e4 ad3c 55c2 e93c 37f4 123d
00000300: 9407 403d 975f 1a3d 4298 453d 5d07 96bb
00000310: 2aa3 dbbb 3f15 be3d 709b c2bc 803b b83d
00000320: 6c4a 0f3c 79c3 8a3c 61dc 26bd d0a4 86bb
00000330: facc 1fbd c30d 603c 95a9 b3bb db60 f1bd
00000340: d43b 92bd 3042 b13c 98f2 13bf edf7 17bf
00000350: 582e ba3d bf73 95bd 9c1b eb3c 1876 4e3d
00000360: a931 183d edee a2be a90e adbd ec69 b2bd
00000370: 5f2c 81bd cebb da3c 0a99 353d cdd4 5bbf
00000380: 0aa3 53be 45d9 1c3d b753 d13c b0c0 a13a
00000390: ef1e e03c d556 9c3c 4e34 943b 54a8 c3be
000003a0: 26d7 4ebb 893e 243e e720 8e3e 4dcd cbbc
000003b0: 3360 ee3d b3e3 1b3d 88f4 5a3d cad6 11be
000003c0: 0185 83bd 3a43 04bf 03b2 2ebd 2492 f93c
000003d0: f22e e83c 227e cbbc 8cbd ed3c d61b 52bd
000003e0: c0ec e5bc 1cf9 7e3a 1cd4 29bd b60e ae3c
000003f0: 4998 99bc fa65 88bd ffb3 15bd 0661 093d
0.029730521 -0.16800196 0.15915139 -0.009294726 -0.12007724 -0.31386107 -0.043830644 -0.05843251
0.008181336 0.10062454 -0.24560459 0.007739232 -0.030697688 0.03651194 0.014326559 0.042747676
-0.5289062 -0.06742757 0.12183473 -0.036552384 0.007827448 -0.13545981 0.23801096 0.06509613
-0.03722385 -0.10415296 -0.09791731 -0.2521812 0.046277847 -0.4488909 0.016021606 0.0718051
0.040897958 -0.13018887 0.14274226 -0.12546864 0.017493863 -0.8039694 0.09225711 -0.65464276
-0.82000214 0.021729102 -0.42788935 -0.05979832 0.05138264 -0.0005244036 -0.073477566 -0.17904954
-0.029851578 -0.029987538 0.06068884 0.054230943 -0.10976915 -0.04780093 0.007619032 -0.033965472
0.009332333 0.050120525 -0.64669573 0.13413708 -0.06256122 -0.02601928 0.023605853 0.0069632707
0.09783743 0.16059811 -0.0019633994 0.054758426 -0.069652535 -0.1069052 -0.03915736 -0.23636606
-0.004559715 0.058925092 -0.066819265 0.024856463 0.11774162 -0.007562171 -0.028728342 -0.03567131
-0.023366459 -0.06869093 0.024445234 -0.022369053 0.009780284 0.14258373 -0.03801087 -0.0009948581
-0.010451998 0.011717801 0.0368971 0.11921551 -0.16345592 -0.022742374 -0.021493822 -0.02840213
0.023095379 0.037591476 0.049339484 -0.029507581 -0.0015938145 -0.0071236175 0.048180416 -0.072625525
-0.0018728673 -0.027027743 0.028040962 0.016337963 -0.4570715 0.3697388 0.019246416 0.045234717
0.029160662 0.009595854 -0.15562205 -0.032923594 0.009143699 0.11990008 -0.038831744 0.12903751
0.104716495 0.026022453 0.03559287 -0.033657 0.007889144 0.013484567 -0.0046145907 0.016625823
-0.12277386 0.02112752 -0.08223637 0.030005788 0.017051656 -0.0134949675 0.025122413 0.017401207
0.05037041 -0.0013579055 0.06680576 -0.031858567 -0.030161297 0.12562144 0.0021386049 0.07322257
0.067991875 -0.14584775 -0.20992877 0.066863656 -0.012964108 -0.020977644 -0.32744646 0.0052256878
0.20005198 0.062414125 0.05769237 -0.11084784 0.033490237 -0.017537823 0.014269807 -0.12845592
-0.012324472 0.030640015 -0.013493516 -0.00987341 0.037280798 -0.042694375 0.0007958871 0.05031758
-0.044851422 -0.056935214 -0.14924915 0.026853628 -0.46031356 -0.2646697 -0.01875197 -0.05366689
-0.03325673 -0.48801553 0.021370612 0.29370502 0.004520868 -0.031761393 0.046452116 -0.053123668
-0.10314413 0.12282868 -1.4175436 -0.03811997 0.038031626 0.021226954 0.028535048 0.035877433
0.046882227 0.037688818 0.048240907 -0.0045785145 -0.0067028003 0.09281396 -0.023755759 0.08995724
0.008745771 0.016938912 -0.040737513 -0.0041090026 -0.03901384 0.013675156 -0.0054828622 -0.11786052
-0.071403176 0.021638006 -0.57792044 -0.5936268 0.090908706 -0.072974674 0.028699689 0.05040559
0.037156735 -0.3182291 -0.08450062 -0.08711609 -0.06307291 0.02670088 0.044335403 -0.85871583
-0.20667663 0.038293142 0.025552614 0.001234075 0.0273585 0.019084373 0.0045228368 -0.38214362
-0.0031561344 0.1603948 0.27759477 -0.024878168 0.11639442 0.038058948 0.05345586 -0.14242092
-0.06421853 -0.5166508 -0.042650234 0.030465193 0.028342698 -0.024840418 0.029021047 -0.051296078
-0.028066993 0.0009726451 -0.04146205 0.02124725 -0.018749373 -0.066600755 -0.03654861 0.033539794

bias f4 [7]
00000000: d89a be3d f527 073e df2b 213e b002 fd3d
00000010: 5a4b 563d 2e7e 773d 8def 473d
0.09306878 0.13198836 0.15739392 0.12354028 0.052317955 0.06042307 0.048812438
